…
-LSTM-Dropout-100D.py
Using TensorFlow backend.
/home/michael/Deep-Learning/venv/lib/python3.6/importlib/_bootstrap.py:219: RuntimeWarning: compileti
me version 3.5 of module 'tensorflow.python.framework.fast_tensor_util' does not match runtime versio
n 3.6
  return f(*args, **kwds)
  __________________________________________________________________________________________________
  Layer (type)                    Output Shape         Param #     Connected to
  ==================================================================================================
  input_1 (InputLayer)            (None, 243, 100)     0
  __________________________________________________________________________________________________
  input_2 (InputLayer)            (None, 736, 100)     0
  __________________________________________________________________________________________________
  lstm_1 (LSTM)                   (None, 64)           42240       input_1[0][0]
  __________________________________________________________________________________________________
  lstm_2 (LSTM)                   (None, 64)           42240       input_2[0][0]
  __________________________________________________________________________________________________
  dropout_1 (Dropout)             (None, 64)           0           lstm_1[0][0]
  __________________________________________________________________________________________________
  dropout_2 (Dropout)             (None, 64)           0           lstm_2[0][0]
  __________________________________________________________________________________________________
  dense_1 (Dense)                 (None, 64)           4160        dropout_1[0][0]
  __________________________________________________________________________________________________
  dense_2 (Dense)                 (None, 64)           4160        dropout_2[0][0]
  __________________________________________________________________________________________________
  concatenate_1 (Concatenate)     (None, 128)          0           dense_1[0][0]
                                                                   dense_2[0][0]
  __________________________________________________________________________________________________
  dense_3 (Dense)                 (None, 1)            129         concatenate_1[0][0]
  __________________________________________________________________________________________________
  dot_1 (Dot)                     (None, 1)            0           dense_1[0][0]
                                                                   dense_2[0][0]
  __________________________________________________________________________________________________
  add_1 (Add)                     (None, 1)            0           dense_3[0][0]
  dot_1[0][0]
  ==================================================================================================
  Total params: 92,929
  Trainable params: 92,929
  Non-trainable params: 0
  __________________________________________________________________________________________________
  None
  Train on 25278 samples, validate on 1331 samples
  2017-12-15 06:44:43.503576: I tensorflow/core/platform/cpu_feature_guard.cc:137] Your CPU supports in
…
