…
epCoNN-CNN-Dropout.py
Using TensorFlow backend.
/home/michael/Deep-Learning/venv/lib/python3.6/importlib/_bootstrap.py:219: RuntimeWarning: compileti
me version 3.5 of module 'tensorflow.python.framework.fast_tensor_util' does not match runtime versio
n 3.6
  return f(*args, **kwds)
  __________________________________________________________________________________________________
  Layer (type)                    Output Shape         Param #     Connected to
  ==================================================================================================
  input_1 (InputLayer)            (None, 243, 50)      0
  __________________________________________________________________________________________________
  input_2 (InputLayer)            (None, 736, 50)      0
  __________________________________________________________________________________________________
  conv1d_1 (Conv1D)               (None, 234, 2)       1002        input_1[0][0]
  __________________________________________________________________________________________________
  conv1d_2 (Conv1D)               (None, 727, 2)       1002        input_2[0][0]
  __________________________________________________________________________________________________
  dropout_1 (Dropout)             (None, 234, 2)       0           conv1d_1[0][0]
  __________________________________________________________________________________________________
  dropout_2 (Dropout)             (None, 727, 2)       0           conv1d_2[0][0]
  __________________________________________________________________________________________________
  max_pooling1d_1 (MaxPooling1D)  (None, 117, 2)       0           dropout_1[0][0]
  __________________________________________________________________________________________________
  max_pooling1d_2 (MaxPooling1D)  (None, 363, 2)       0           dropout_2[0][0]
  __________________________________________________________________________________________________
  flatten_1 (Flatten)             (None, 234)          0           max_pooling1d_1[0][0]
  __________________________________________________________________________________________________
  flatten_2 (Flatten)             (None, 726)          0           max_pooling1d_2[0][0]
  __________________________________________________________________________________________________
  dense_1 (Dense)                 (None, 64)           15040       flatten_1[0][0]
  __________________________________________________________________________________________________
  dense_2 (Dense)                 (None, 64)           46528       flatten_2[0][0]
  __________________________________________________________________________________________________
  concatenate_1 (Concatenate)     (None, 128)          0           dense_1[0][0]
  dense_2[0][0]
  __________________________________________________________________________________________________
  dense_3 (Dense)                 (None, 1)            129         concatenate_1[0][0]
  __________________________________________________________________________________________________
  dot_1 (Dot)                     (None, 1)            0           dense_1[0][0]
  dense_2[0][0]
  __________________________________________________________________________________________________
  add_1 (Add)                     (None, 1)            0           dense_3[0][0]
  dot_1[0][0]
rams: 63,701
Trainable params: 63,701
Non-trainable params: 0
__________________________________________________________________________________________________
None
Train on 27352 samples, validate on 1440 samples
2017-12-15 00:22:27.511217: I tensorflow/core/platform/cpu_feature_guard.cc:137] Your CPU supports in
structions that this TensorFlow binary was not compiled to use: SSE4.1 SSE4.2 AVX AVX2 FMA
…
